orbit/orbit_ws_cycy_/source/standalone/workflows/rsl_rl/checkpoints/franka_lift/2024-04-11_00-55-46/exported/policy.onnx (onnx, 204541 bytes, 8 tensors)

actor.0.weight f4 [256, 35]
00000000: f742 01bf 8ba2 803d 742d 1ebf 77e9 f8bd
00000010: d389 043f 53d0 9c3e d06a c4bc 092c de3d
00000020: fb1e c0bc b2b5 0bbe af2c d73d ecc6 9abd
00000030: 524a 1bbd e21f 9dbc 30d6 cbbd 7fb1 b7bc
00000040: 6ec7 213e a5b9 ef3d 8c92 773e 24fb 853f
00000050: 82ce 29be 82c6 1ebd 2de6 3bbe d015 683d
00000060: 6ca0 92be a848 40bd 43fe 743d aaa5 0fbe
00000070: 2036 a1bd 3c81 083e bed4 e2bc 188a 97bc
00000080: d60d 143d 255d d7bd 32b7 31bd c745 813e
00000090: 55a5 a63d d080 4c3e 7317 22bd b206 fe3e
000000a0: 6516 753e 39ef df3d 6d59 00bf 5177 ed3e
000000b0: 3e8b 02bc 5b54 5b3d 52a6 bcbc 32f9 03bc
000000c0: fe16 953c a3fe 163d 436a 2d3d dd47 1d3d
000000d0: 4fb8 013f 5fab e3be 0b05 2abf 433e 973f
000000e0: 369f 04bd 3e9b 6e3e 0404 8ebd 677c 52be
000000f0: 1f6c e9bc 4090 9e3b 479a e2bd c80b ecbc
00000100: fc2b b0bd e161 f83c d0db 97bd ae19 5abc
00000110: b88c cd3c e186 8bbd ba59 413f 30e0 d5be
00000120: 8962 573f 776e 9ebd 91ce 6ebe aca8 0a3e
00000130: 29c4 c83d 2d5d a1bc 28d6 febe 9763 c3bd
00000140: f152 9fbd 65d6 cc3b c3a3 763d 5dfc 8bbd
00000150: 3769 b4bc 5686 51bd 9081 9a3d 648b 4e3d
00000160: c38d d93c 4ba8 6abf 8bfc cfbe dea4 83bc
00000170: 4710 883e d926 233e 960f f53d 3670 9dbd
00000180: 1605 fc3d 35f7 2bbe 064b 553e 3da4 f13d
00000190: c9d8 7dbe 48ce 2d3d 0777 f4bd 2f8d b7bd
000001a0: ac2b ab3c 3e58 803e 97d4 15be b40e 2f3f
000001b0: 74a8 3f3e ef20 2b3e 7fdc 99be 7892 f93d
000001c0: 8449 a13e d477 2dbe 2f40 dabc d14c 043e
000001d0: 6c51 d2b7 0c73 29be 5e42 833b d137 b1bd
000001e0: b34e f73c 923a 043e 1587 a23e 8444 093f
000001f0: 3d4c 9bbe 9a8a 5dbf 18dc e2bc 8b61 783e
00000200: 04b2 b8bd 1d02 a5bd 7ee2 003e 5ef3 71bd
00000210: 8708 1bbc 33d4 f13d 12be 543d e67e 15be
00000220: 3b05 ffbd 9d3b 9d3d b4b2 cbbc b047 003d
00000230: 2ebb b23e a923 d0be de1f 23be 9a86 5b3e
00000240: 7bea 2e3e d485 a53d 0050 703e b772 3b3e
00000250: c3b5 27bf 76de 243d 9318 a8bd b355 e13c
00000260: 3519 503c 2449 01bd 30eb 553c 7121 7fbc
00000270: ee41 433e 51b2 50be 3dc5 0e3f 8d0f 8dbe
00000280: 9ddb 24bf 2c38 a8bd 2fca 223f 6a80 5bbe
00000290: 233e 2e3e 20c3 163e ddbc 0a3e 4547 b6bd
000002a0: 2ddc 443d b111 64bd 528e c93c 3fd7 02bd
000002b0: 5fa1 c23d f568 5abd 4082 debc 1d77 05bf
000002c0: cfba 5a3e 212b d5be 95fa 0ebd 47b4 efbd
000002d0: 00eb 40bd da9e ea3d 15f5 ad3e 3f79 cfbd
000002e0: e685 eabd 39c7 40be 0f75 0abe 4a37 333e
000002f0: a540 5f3d 79ab 243d cbfe 053c 8b96 013e
00000300: 7acf 1a3e b45a 263e bc02 05bf 1a6d ccbe
00000310: ba6a c83b db31 193d 5656 b3bd a1ce 51bd
00000320: 67b2 2a3e bc95 87bd e79a d23d 33b8 08bd
00000330: f563 d5bc cdf8 273e 3138 493b 4310 2d3d
00000340: a1e7 503d 0b11 573d 55cc bb3d d903 dabd
00000350: 5adc 07bf 42d0 ac3e 1b66 833e 53cb 30be
00000360: c5e9 01bd 688b bd3e 8dea 2ebf fb9f 483b
00000370: 063b 1c3d 0722 203b d356 6e39 503c e4bc
00000380: 4d6d 9e3d 51e2 833d cd8c 26be 69fa 87be
00000390: 3f68 9cbe ca74 733f bffd 02bf 6230 363d
000003a0: e9ac 84be 68e6 733b 9bf5 103d 161c f43d
000003b0: dce4 04bd 5805 823d d949 74bc 8f8c fe3d
000003c0: eacb cf3d 498b 4dbd 0f85 9a3c b67c a23d
000003d0: c02f 4b3d 67e5 68be 515f 4a3d 214e e9be
000003e0: fe15 be3e 4c0a 6c3e eda0 953e ac60 a03c
000003f0: 096d aa3e 366c 1abf 66aa 9c3c d1ce f8bd
-0.50492805 0.062810026 -0.61788106 -0.12153905 0.51772803 0.3062769 -0.023976713 0.10848243
-0.023452273 -0.1364353 0.105065696 -0.075574726 -0.037912674 -0.019180242 -0.099529624 -0.022423504
0.15798733 0.11705331 0.24176997 1.0467267 -0.16582683 -0.03876353 -0.18349524 0.056661427
-0.28638017 -0.04694429 0.059812795 -0.1402804 -0.07871652 0.13330549 -0.027689334 -0.018498465
0.036146007 -0.10515813 -0.0433876 0.25248548 0.08137003 0.19971013 -0.039573144 0.49614483
0.23934324 0.109343 -0.5013645 0.46380094 -0.007967768 0.053547245 -0.023028526 -0.008055018
0.01819944 0.036863934 0.042337667 0.038398612 0.5067186 -0.44466683 -0.66413945 1.1815876
-0.032378398 0.23301408 -0.0693436 -0.20555268 -0.028493939 0.0048389733 -0.11064582 -0.028814211
-0.08602139 0.03032011 -0.07414973 -0.013311787 0.025091514 -0.068128355 0.75527537 -0.41772604
0.8413473 -0.07735913 -0.23320986 0.13540906 0.098030396 -0.01969775 -0.49772763 -0.0954048
-0.07779492 0.0062511438 0.06021477 -0.06835244 -0.022022827 -0.051153503 0.07544243 0.050425902
0.026556855 -0.91663045 -0.40622362 -0.016069826 0.2657492 0.15932788 0.119658634 -0.07687418
0.123056576 -0.16793521 0.208294 0.11798904 -0.24789728 0.042433053 -0.11936765 -0.089624755
0.020894848 0.25067323 -0.14631878 0.6838181 0.18716604 0.16711782 -0.30051038 0.1218614
0.315014 -0.16940242 -0.026641933 0.12919928 -2.5071866e-05 -0.16547793 0.0040057143 -0.08653224
0.030188894 0.12912968 0.31743684 0.5362017 -0.30331603 -0.86539614 -0.02769284 0.2425596
-0.09018329 -0.08057044 0.125864 -0.059069984 -0.009462482 0.11808052 0.051939078 -0.14599189
-0.124521695 0.07677386 -0.024865486 0.031318367 0.34908432 -0.40652207 -0.15930125 0.21438065
0.17081635 0.08082166 0.23468018 0.18305479 -0.6551172 0.040251218 -0.08207812 0.027506685
0.012701322 -0.031563893 0.013056561 -0.015571938 0.19068119 -0.20380522 0.5576971 -0.27550927
-0.64397603 -0.08213839 0.6358976 -0.21435705 0.17015891 0.14722872 0.13548608 -0.08900312
0.04806154 -0.055680934 0.024603996 -0.031943556 0.09503435 -0.05332275 -0.027161717 -0.5213488
0.21360324 -0.41634467 -0.034906942 -0.11704307 -0.047099113 0.1145608 0.33976045 -0.10130548
-0.1145132 -0.18825997 -0.13521217 0.1750156 0.05450501 0.04020259 0.008178423 0.12655084
0.15118209 0.16245538 -0.519573 -0.39926988 0.0061162384 0.03740106 -0.08756702 -0.051222447
0.16669618 -0.066203564 0.102834515 -0.03337879 -0.02604864 0.16403504 0.0030703659 0.042251837
0.05100215 0.052506488 0.091698326 -0.10645265 -0.53070605 0.33752638 0.25663838 -0.17265062
-0.03171708 0.3702042 -0.68326646 0.0030612934 0.038142227 0.0024434344 0.00022729793 -0.02786079
0.07735691 0.06439651 -0.16264649 -0.26558235 -0.30548283 0.9510008 -0.51168436 0.044479735
-0.2591317 0.003721619 0.035390478 0.119194195 -0.03244482 0.063486755 -0.014910185 0.12429153
0.101463154 -0.05018166 0.018862275 0.07933943 0.049606085 -0.2274376 0.049407307 -0.4556742
0.37126154 0.23050803 0.2922434 0.019577347 0.33286312 -0.60321367 0.019124221 -0.12148822

actor.0.bias f4 [256]
00000000: ef1e 3abe c0fe 0ebe 481f f83d 1d4f 823b
00000010: 0d4e 35bc 5a06 85be bd01 8c3e 5f6f 47be
00000020: a822 3ebe b490 e4ba 8528 aabd 0e36 c4bd
00000030: 461b 0cbe 040b 8f3d e330 023e 011d 473d
00000040: b475 533e e718 833d 1fe7 f13d e4f3 8c3e
00000050: 9983 833e 4db3 ccbd 8e48 65bd 2d38 e03d
00000060: b6e6 af3d 137a 85bd e8c4 1f3d b420 5ebd
00000070: 4661 49be d29e 29bc d8e9 9bba fc40 173d
00000080: 7d2d 1ebe 2e66 073d f292 10be 6e45 fcbc
00000090: 1894 bc3c b693 bfbd d54f 0cbe 1a85 0d3e
000000a0: 3f52 8f3d 5f12 96bd 653e 04bd 3a45 c63d
000000b0: a302 d7bd f6e3 51be 059b 813e 7da8 003e
000000c0: 5317 a3be d7e1 c1bd ad9b e9bc 3a65 3a3e
000000d0: f79a 01be 0387 01be b3d8 9abc 37c9 ba3d
000000e0: 8a74 323e c3b6 01bd c064 303d b79c 07be
000000f0: 430c ea3d eacb b6bd b9e3 033e bcff e63d
00000100: 2ecb 4e3e 9b6c 1f3e ef66 83bd 407d 82bd
00000110: 2e40 4ebe d9e8 e03b 3940 9cbd 0c2a 553e
00000120: 54cb 343e 263d 093e df87 db3c 73f3 143e
00000130: 88e3 ce3d 3e61 efbd d45a e03b 45ab 0dbd
00000140: 3350 e5bd 1c44 18be 7df5 a23d 321a 193e
00000150: 3cbc da3d 216e 0d3e b799 f43c 4cd8 ba3d
00000160: f02f e5bd 3966 e63c 60fe 82bd af21 18be
00000170: 2f4e 5ebe c744 333e 26fd 2a3e 066b 5b3d
00000180: dd2c 82be 8fe5 a73d 7435 683e 4948 313e
00000190: 5b45 973d fa90 e03d 4e55 203d 9495 f7bc
000001a0: ad34 093e e30d 6b3c 0a0e 94bd df67 0a3e
000001b0: f588 f63d 136f febd 5b03 3e3d 455c 9a3b
000001c0: 8d77 1e3d dee2 96be 75d4 a7bc 2802 eb3b
000001d0: 6bd8 e2bc ffd5 513e 2650 e63c c7b1 f4bd
000001e0: 2065 84bc 267a 8fbd 9050 49be 72ec fc3c
000001f0: 7f2c 0c3e a1b3 8e3d 95f6 4abc 9585 14be
00000200: c40a a33d bf97 f1bc 252c 07be 1bac bebd
00000210: 9968 083d 565e 89be ac98 8d3e ea9f 033d
00000220: 9a26 683c 046a 103b 625d 8abe e364 1fbd
00000230: d95b d13d 0425 ccbd d141 93bc d21f f83d
00000240: dd82 4fbe cd0b 37be 07a4 80bc 4b6d b6bd
00000250: d1f3 823e b812 aabc 3c98 a1bd 6703 12be
00000260: cd40 7bbd bf11 eebd 5f02 093e 10cf 88be
00000270: aee4 45bd 7265 60bd a31d d33b e3aa 86bd
00000280: 6604 b33d 76df 5fbe 5a5e e9bd ac22 fabc
00000290: c1f3 dfbd b218 853d a355 8c3d 33c3 173e
000002a0: d66e 80bc 9bbf 00bd c9aa 1a3e 304e d4bd
000002b0: 800d 13be 8424 843d 36f4 51be 70dd 15be
000002c0: 82f1 0cbe abad 173e fa08 07bd 3d84 0e3e
000002d0: b1b3 9c3d d7b0 e23d b757 393d 7531 7e3e
000002e0: 83a9 07be 6791 2c3e dbbe 93be 8af9 b73d
000002f0: 9b4e 5dbe 4926 c23d d839 f73d 4b03 99bd
00000300: 58b8 9fbd 5486 0c3e e256 d73d 6385 5e3e
00000310: 10ea cabd 6ffa b53d 304e 8ebe ad9f 253d
00000320: 0ada 29be 9829 96bd a92a 64be 6fbe 993c
00000330: c887 cdbc 050b 123e 6209 c8bd b37f a4bd
00000340: e683 4cbe 6eb7 8f3d eecf a3bd af9f 3c3d
00000350: 5ede e5bb a14f 3a3e 9df4 353e 83de 49be
00000360: 2662 fb3c f0e1 ec3d 3461 2c3e 465e 033e
00000370: 96a9 1cbe 275d 9bbd ad72 90be 1471 4bbe
00000380: e603 a0bd 31bd 1dbe aea6 e6bd 7b30 c83d
00000390: 248e 4fbd e76d d3bd eb1f 573e e31f 3ebe
000003a0: c585 b73d cd61 2f3c fc43 923e 7043 c7bd
000003b0: 8404 e23d 5407 6f3c d459 0cbd d97b 54bc
000003c0: 624c 203e 59e0 77bd b918 39be 4624 4e3d
000003d0: e612 18be b24b 103e c98c 3dbe 5765 d0bd
000003e0: 893e 1c3e 8437 8a3b 7027 29be 76de f73d
000003f0: dbd8 893d dc4f 16be 7e55 ac3d 51f5 2d3d
-0.18175863 -0.13964367 0.121153414 0.003976716 -0.011065972 -0.25981408 0.27345076 -0.19476078
-0.18567908 -0.0017438144 -0.0830851 -0.095806226 -0.13682279 0.06984523 0.12713961 0.048611645
0.20650369 0.06401234 0.11811661 0.27529824 0.2568634 -0.099951364 -0.055977397 0.10948215
0.085889265 -0.065174244 0.039006144 -0.054230407 -0.19666013 -0.010352807 -0.0011895252 0.03692721
-0.1544704 0.03305643 -0.14118555 -0.030794825 0.023019835 -0.093543455 -0.13702329 0.13820305
0.06998109 -0.07327723 -0.032286067 0.09681173 -0.1049855 -0.20497116 0.25313583 0.12564273
-0.31853732 -0.09466904 -0.028516615 0.18202677 -0.1265677 -0.12649159 -0.018902158 0.0912041
0.17427269 -0.031668436 0.043064833 -0.13243376 0.1142812 -0.08925612 0.12879838 0.11279246
0.20194694 0.15568773 -0.064161174 -0.06371546 -0.2014167 0.006863695 -0.07629437 0.20816821
0.17655689 0.13402233 0.026798187 0.14545994 0.10101992 -0.11688469 0.006846765 -0.034587163
-0.111969374 -0.14869732 0.079569794 0.14951399 0.10680434 0.13811542 0.029858453 0.091232866
-0.11190784 0.028124915 -0.063961744 -0.148566 -0.21709512 0.17506705 0.16698131 0.053568862
-0.25424853 0.08198082 0.22676641 0.17312731 0.073862754 0.10965152 0.039143853 -0.030222692
0.13399 0.014346573 -0.0722924 0.13516186 0.12037841 -0.124235295 0.04638992 0.0047107064
0.03868823 -0.2946996 -0.02048705 0.007171888 -0.027691087 0.2049179 0.02811439 -0.11947971
-0.016161501 -0.0700572 -0.19659638 0.030874465 0.13688849 0.06967855 -0.012387891 -0.14504083
0.07961038 -0.029491303 -0.13200434 -0.0931017 0.033302877 -0.26829785 0.27655542 0.032134928
0.01416936 0.0022035846 -0.2702437 -0.038914572 0.10222597 -0.09967998 -0.01797572 0.12115444
-0.20264764 -0.17875595 -0.015703214 -0.08907565 0.25576642 -0.020760879 -0.078903645 -0.1425911
-0.061341096 -0.116244785 0.13379811 -0.26720476 -0.04831379 -0.054784246 0.006442742 -0.06575563
0.08741073 -0.21862587 -0.11394949 -0.030534111 -0.10935164 0.06498851 0.068522714 0.14820556
-0.01567785 -0.03143273 0.15104212 -0.103664756 -0.14360619 0.06452277 -0.20503315 -0.14635253
-0.13764003 0.14812343 -0.032967545 0.13917632 0.07651461 0.11068886 0.045249667 0.24823554
-0.13248257 0.16852342 -0.2885655 0.08983143 -0.21612017 0.094799586 0.1207158 -0.07471331
-0.07798833 0.13723117 0.105146185 0.2173057 -0.09907925 0.08885657 -0.27794027 0.04043548
-0.16587082 -0.07332152 -0.22281899 0.018767564 -0.02508916 0.14262016 -0.09767415 -0.08032169
-0.1997219 0.07017408 -0.07998644 0.046050724 -0.0070150336 0.18194439 0.17769094 -0.19713788
0.03068645 0.11566532 0.16833955 0.12828931 -0.15299067 -0.07586127 -0.2821249 -0.19867355
-0.078132436 -0.15404202 -0.112622604 0.09774872 -0.050672665 -0.103236966 0.2100827 -0.18566851
0.089610614 0.01070447 0.28567493 -0.097296596 0.110360175 0.0145891495 -0.034265354 -0.012968981
0.15654138 -0.06051669 -0.18075837 0.05032756 -0.14850959 0.14091375 -0.18510737 -0.10175579
0.1525823 0.0042180438 -0.1651895 0.12102978 0.06730815 -0.14678901 0.08414744 0.04247028

actor.2.weight f4 [128, 256]
00000000: 28bd afbd 797e fcbb faa0 f73d 941c 933d
00000010: 5ed8 a33d ac86 143e 3d5a a43d e7e3 99bc
00000020: 8d0f 70be bbcc 1bbd 0b20 37bc 582c 4ebc
00000030: 70f3 24bd 6b88 1bbd 1815 8cbc 42f0 5b3c
00000040: f91d 1d3e e51f f7bc cdac 1c3b 7d51 53bd
00000050: dad5 c23d dcfb 6abc 00f9 cd3d 5cc8 5ebd
00000060: 6a0e aa3d d260 163c 191c bbbd c8e8 1d3e
00000070: 37d6 d4bc 480c c53d b069 8abd 851a 103e
00000080: ea88 f93d 4c60 97bc 11e8 c1bc 5275 45bd
00000090: 1c3d 613e f84b 3dbe ecbe 46be 9b66 9dbd
000000a0: 5b8c fa3d 026f 96bd 114c 92bd c03a c83d
000000b0: 1a5e 4bbd ee57 72bc d098 1e3e 4c10 003e
000000c0: e6d9 853b df02 a5bd 75c0 55bd ffce 313e
000000d0: f819 863d 50d7 bebc afed 563d cfd4 3a3e
000000e0: 28d3 9fbc 02e3 333e 71c2 2e3e 1845 ed3c
000000f0: a28c 053c beb4 e23d 953a bb3d bdbb 1b3d
00000100: 9275 dc3d 5445 cabd b403 d9bd 3882 ad3c
00000110: be15 dcbb f66c 7a3d f0b0 27bd 8b91 8a3c
00000120: 4f60 cabd 13e4 81bd 6eea 9ebd f476 debc
00000130: 70b0 c93d 5698 bcbd b236 0a3d aff9 6d3c
00000140: cb1c c73d 8458 edbc cf28 f4bd 0ca4 5ebd
00000150: ad4b 833d 7f45 e33d 6996 ffbd 710c 103d
00000160: c317 713e 7858 47bd a577 2dbc e80f 273d
00000170: d6b2 a43c b2a2 d93d ed2c 3b3d 9984 033e
00000180: 7ae6 a5bb cd5a a83d 579a ff3d 568e b83b
00000190: 88b2 f63d 2356 f33d a9e3 34bc 706e 113d
000001a0: 2313 213d 6db1 a8bd e901 33bc 3cf1 f43c
000001b0: 56f5 12bd b62f 2b3c 91cc c03c 67b4 30bc
000001c0: 82fb 6b3d b35c 293e bd38 cd3d 209f cf3d
000001d0: c639 5fbd eb63 05bc 6538 15be 8eb4 2dbe
000001e0: 22c1 013d 3ee3 0abd 45cc 733d 5d83 9c3d
000001f0: eb1c b8bb 284f b8bd 6838 e73d 2a16 ab3d
00000200: 1e21 ef3d ef4f ddbc 9265 37be 194f b03d
00000210: a7da d7bb 07f4 5fbc 9a50 ca3d 2e0f 52bd
00000220: eab1 b0bd 22d7 873c 7bda 5ebe 470f 073e
00000230: 7391 66bd 6bd4 6a3d 5bad 123e e807 5a3e
00000240: a6ad cd3d 3f01 043d c009 55be 28ac 2f3d
00000250: 7c3d 60bb cd9c 423e 9bfb e23c ae61 03bd
00000260: 5ffb c73c 7daf 103c d114 1c3e 58d7 8b3d
00000270: cb2e 9c3d dbd4 cf3c bfbd 353e 0bc8 ff3d
00000280: ae80 a5bd b24f 463e 2584 52bd 8678 bbbd
00000290: 6a2a b33d 2bab 2f3e 39ac d539 051c b9bd
000002a0: fdf9 633e 6f21 443d f3a9 84bd b41e ee3c
000002b0: 0598 79bd b6b5 8e3d 7642 c7bd 9511 0dbd
000002c0: 7a45 51bd 364b 363e f725 0bbc 7fc3 d33c
000002d0: 311f aabb ed2c 173e e7e6 8e3d a5ab 363d
000002e0: f1b2 84bd fc66 f53c b0ac 2abe c171 9a3d
000002f0: 4f61 47be de22 6d3c b0eb a8bd 6e77 563c
00000300: 8cd0 bbbc 9083 893d 8417 163e da9b 973d
00000310: 6ddc 6a3d 8c90 8cbd 7fd3 f8bb 4e0f 4e3c
00000320: d563 b6bc abf7 b43c aba3 23bc 8b28 7c3d
00000330: 7ce6 043e 62cc 33bd 89ce c83c e2c4 1d3e
00000340: 5d6b 39bd e885 b6bd ffa5 fe3d 2a3b a4bd
00000350: 7569 5d3d 6a19 353d 5b5a 043e 15cf b0bd
00000360: de8b 83bc b437 32bb 325d 473e 0bda 81bc
00000370: 8d6c 4c3d a544 e13d c38d 9dbb 6718 53be
00000380: d5ae 3d3e e40e 40bd dd8d e33c 152c 92bd
00000390: c86b 21be 0891 68bc eb94 efba e650 95bd
000003a0: b11d 3cbb 4513 b63d a230 b23d dab7 e0bc
000003b0: c887 bc3c 68e7 e43d 9569 35bc 94f7 5a3e
000003c0: 613f babc 4c12 a8ba bb86 673d e766 8a3c
000003d0: c15d 5ebd b1ca 8d3d 2cbe 77bd e2e6 223e
000003e0: bc34 ec3b 86bb 5cbd c5be 43bd 76ef ba3d
000003f0: 7fb6 b63d 2837 1fbe 0415 5bbd 521b 053e
-0.085810006 -0.0077055064 0.12091251 0.07183185 0.08000253 0.14504498 0.08025024 -0.01878543
-0.23443432 -0.038037043 -0.011177073 -0.012583815 -0.040271223 -0.037971895 -0.017099902 0.013423981
0.15343465 -0.030166576 0.0023906708 -0.051591385 0.09513445 -0.0143422745 0.100572586 -0.054390296
0.083035305 0.009178357 -0.091362186 0.1542083 -0.025981052 0.09621483 -0.067584395 0.14072616
0.121843174 -0.018478535 -0.023670228 -0.04820759 0.21995968 -0.18486011 -0.19408768 -0.07685586
0.12233802 -0.07345392 -0.07143415 0.09776831 -0.04965029 -0.014791472 0.15487981 0.12506217
0.0040848134 -0.08057188 -0.052185494 0.17364119 0.06547922 -0.023296028 0.052472766 0.18245243
-0.019509867 0.17567065 0.17066361 0.02896361 0.008151205 0.1106963 0.09142033 0.038020838
0.10764612 -0.098765045 -0.105964094 0.021180257 -0.006716459 0.06113907 -0.040940225 0.016915103
-0.09881651 -0.0634233 -0.07759558 -0.02715633 0.09848106 -0.09208743 0.033743568 0.014524861
0.09722289 -0.028972872 -0.11921846 -0.054355666 0.064109184 0.1109724 -0.1247986 0.035168115
0.2354422 -0.048668355 -0.0105876075 0.040786654 0.020104807 0.10626735 0.04569714 0.1284355
-0.0050628753 0.08220444 0.1248061 0.005632202 0.12045771 0.11881664 -0.011040607 0.035505712
0.03932489 -0.08236966 -0.010925748 0.029900186 -0.0358785 0.010448387 0.023535045 -0.010785199
0.057612903 0.16539268 0.100205876 0.101377726 -0.054498456 -0.008141498 -0.14572294 -0.16963407
0.031678326 -0.03390812 0.05952098 0.07642243 -0.0056186817 -0.08999473 0.112900555 0.08353837
0.116762385 -0.027015654 -0.1790984 0.08608837 -0.0065873447 -0.0136690205 0.09878655 -0.051284008
-0.086276844 0.016582076 -0.21763031 0.13189422 -0.056291055 0.057331484 0.14323942 0.21292078
0.100428864 0.03222775 -0.208045 0.04288879 -0.0034216335 0.19005127 0.027707865 -0.032075576
0.024411855 0.008830902 0.15242316 0.06828183 0.076261126 0.025370052 0.17748164 0.12489327
-0.08081184 0.19366339 -0.051395554 -0.091538474 0.08748324 0.17155139 0.00040754842 -0.090385474
0.22263332 0.047883447 -0.06477728 0.029067375 -0.060935993 0.06968252 -0.09729473 -0.034440596
-0.05109165 0.17802128 -0.008492938 0.025850056 -0.0051917066 0.14763232 0.06977635 0.044597287
-0.06479443 0.029956333 -0.16667438 0.07541228 -0.19470714 0.014473645 -0.08248079 0.013089998
-0.022926591 0.06714547 0.14657408 0.07402773 0.05733912 -0.06863508 -0.0075935717 0.012576891
-0.0222644 0.022090754 -0.009987752 0.061562102 0.12978548 -0.043896087 0.024512546 0.15407136
-0.045268405 -0.08912259 0.12434005 -0.08019097 0.05405565 0.04421369 0.12925093 -0.08633248
-0.016057905 -0.0027193846 0.19469145 -0.015851041 0.04990821 0.10999421 -0.004808159 -0.20614778
0.18523724 -0.0468892 0.027777607 -0.07137314 -0.15763772 -0.014194734 -0.0018278634 -0.07290821
-0.002870422 0.08890394 0.08700682 -0.027431417 0.023013964 0.1117695 -0.011072536 0.21383506
-0.0227353 -0.0012822836 0.056524973 0.01689477 -0.05428863 0.06923426 -0.060484096 0.15908387
0.007208435 -0.053889774 -0.047789354 0.09127705 0.08921527 -0.15548384 -0.05348684 0.12998703

actor.2.bias f4 [128]
00000000: 485c 153d 5968 28be 6ba5 0ebe 10df 84bb
00000010: ded8 1fbc 8b7f 91bc ba7f 47bd 8cec 37be
00000020: 3970 21be 5f72 ebbc e2e6 36be 86e3 d53d
00000030: 783c bebe 83bd 56bd f0ab 13bd ba5a 45bd
00000040: 224f acbd 8b75 e3bd 3286 33bd ee60 74bd
00000050: 7329 d6bc 3e29 17bd d1ce 2dbe 8c99 0ebd
00000060: e0d1 32bd 7dc6 31bd 2fa0 a4bd 7638 44bd
00000070: fa2d 213e ffdc 13be 4e41 dcbd 766c 0fbe
00000080: 3732 06be c862 31bd cb8d a2be b66e a8bd
00000090: b740 52bd 7b61 97be afca 34bb 2072 a7bc
000000a0: 84ae 5dbd cf41 133c ab78 21be 65e8 1fbc
000000b0: a5e6 14bd 2082 98bc 817a 1f3b 66d3 873c
000000c0: e92b 1ebc c51a 083c 1e7a 5dbd 85dc a4bd
000000d0: c5ef c23c 1a8d 43be cc29 09be f52d cbbd
000000e0: 5093 6c3d 642a 8cbd ab78 39be bc15 7a3d
000000f0: f1df b2bd d737 37be 6416 90be ebfa 42be
00000100: 394c 1bbd 5f03 0cbe 43c9 9abe ff27 833c
00000110: 9c70 88bb 7b6e 5bbd 246f f33d 2b49 6dbc
00000120: b7e2 8bbd e4a1 e4bd 0dd9 afbc e0eb cebd
00000130: e17b 8a3d 8f0b c23c aaed dabd d1e0 f53b
00000140: f0d6 b7bd dc04 93bd ae74 8e3d 9a67 a6bb
00000150: 7745 43be a7b6 edbd 7bb9 febd 7433 babc
00000160: b5da 06bc bf96 c2bd 87fb cbbd ce87 d1bd
00000170: 88f0 45be c562 e3bd 89ad a9be 1f19 06be
00000180: 0116 313e e569 65be 20a1 bdbd d5de 053d
00000190: 5ef0 36be d1e8 9fbd acfc 9bbc 18fa 82be
000001a0: cfa6 003d 281a efbc 848a a5bd 1fdf 1fbd
000001b0: 1ced f3bd db91 adbc f871 05be b740 0fbe
000001c0: b9d4 a9bd 5d8f 943c dbd2 debc ed66 5fbd
000001d0: 2b60 c5bd d171 ffbd b930 f3bd 16bb 4dbe
000001e0: 4f99 cd3c e3b2 febd ab1e 6639 bc88 01be
000001f0: 9a02 64bd 0241 2abd 82ea 9f3c 34b0 cfbc
0.03646496 -0.16446055 -0.1393029 -0.0040549114 -0.009756295 -0.017761013 -0.048705794 -0.17961329
-0.15765466 -0.02874106 -0.17861512 0.10443787 -0.3715551 -0.052426826 -0.036052644 -0.048182227
-0.08413531 -0.11106404 -0.04382915 -0.05966275 -0.026142811 -0.036904566 -0.16973425 -0.034814402
-0.043657184 -0.043402184 -0.08038365 -0.047905408 0.15740195 -0.14439772 -0.107546434 -0.14006218
-0.13105093 -0.043307096 -0.31748804 -0.082242414 -0.051331248 -0.2956656 -0.002758663 -0.020440161
-0.05412151 0.008987858 -0.15768687 -0.009759997 -0.036352772 -0.018616736 0.0024334493 0.016580295
-0.009654024 0.008307164 -0.05407154 -0.08049873 0.023795972 -0.19096795 -0.1339485 -0.09920875
0.057757676 -0.06844023 -0.18112437 0.061055884 -0.0873412 -0.17892395 -0.28142083 -0.1904103
-0.03791449 -0.13673161 -0.30231676 0.016010283 -0.0041638147 -0.05357216 0.11886433 -0.014482777
-0.06830352 -0.11163691 -0.021465803 -0.10103583 0.06761909 0.023687152 -0.10689862 0.007503607
-0.08976543 -0.07178661 0.06955849 -0.0050782682 -0.19069467 -0.11607104 -0.12437721 -0.022729613
-0.008230855 -0.09501409 -0.099600844 -0.10230981 -0.19330037 -0.11102823 -0.3314021 -0.1309552
0.1729355 -0.22403677 -0.09259248 0.032683212 -0.1786513 -0.07808078 -0.019041382 -0.2558143
0.03140908 -0.029187277 -0.080830604 -0.039031144 -0.119104594 -0.021187713 -0.13031757 -0.1398953
-0.08292527 0.018134767 -0.027200153 -0.054541517 -0.09637483 -0.12472881 -0.118745275 -0.20090899
0.025097517 -0.12436464 0.00021945934 -0.12649816 -0.055666544 -0.041565903 0.019521002 -0.025352575

actor.4.weight f4 [64, 128]
00000000: 1f5f 803d 2538 503d b5b6 043d 0b18 86ba
00000010: 4ce0 37be e450 b63d 3c78 d1bd 6aae 42be
00000020: 8353 573e f6fc f7bd 322d 613d 08b9 e1bd
00000030: dc7c dfbc ed71 c3bd 9635 2bbe 0af3 7abd
00000040: 53e6 80be a296 96bc a7f1 2fbe d732 21be
00000050: 6b1f b7be 037c 67bd 48c4 753b d4df a83c
00000060: f639 543c e223 67be 81fa 4a3d 4afd 23bb
00000070: 76ca 5e3d f49e 65bd cce7 08be f9f0 1ebd
00000080: d15b a73d 6907 b6bd b1ac 22be 118c 70bd
00000090: ef29 cebd c7e7 b1bc bce4 053d d7aa 843d
000000a0: f012 a23c b0ae ae3d 85b7 2ebe 0717 b2be
000000b0: 6f5a 9dbd 1e67 b8bd 5a6c 00be 6d99 64be
000000c0: 7ca1 ab3c b6d1 86be 621b 7a3b 3463 a93c
000000d0: df2f 93bd 197e 883e 6919 74bd 870b 4c3d
000000e0: ab93 b43d 4e30 253d e1f5 79be 6c7b 633e
000000f0: f3b4 093e ed67 46be 1c1d dcbc 3c53 f3bd
00000100: 338b b63d efc7 003e e701 d9bc 7e47 263e
00000110: 8933 253e f088 3f3e 20ae 3cbe d3cc 053a
00000120: 23c6 983c e1b9 30be d533 de3c 8980 d7bd
00000130: 2f2e c53b 1ffd d43d 74e5 b2bd 66f4 8cbd
00000140: 355e 4fbd 4bd7 663e 3152 c23d ded1 7b3c
00000150: 35c9 1a3e e406 8cbd 0757 533c 164c 41bc
00000160: c66c c6bc 5b4f 2d3d 7a39 fd3c 5d78 7abd
00000170: 07f1 8a3e 7013 48bd 280a 513e 75a0 98bd
00000180: 1e55 65be 3bfd bb3d ac79 893d 73e7 2bbd
00000190: b643 1b3c e80b fcbd 7b18 753d 5c0d 2a3e
000001a0: aa2c 103e bfd1 57bd 24ed 293d e62f 9d3d
000001b0: a638 7e3b 6e50 21bd ad11 b03d 9630 71bd
000001c0: 761f 903d d12c 863a 9142 36bd c57b ef3c
000001d0: a12a 66bd 27b4 db3d 9919 25be 9031 7ebe
000001e0: c203 0abd 7bc1 9a3e 378c f13c 68f3 693e
000001f0: cb58 27be 0290 cf3d 10cd 39bd 0c8e 823c
00000200: f7e6 c2bd a05b 03bc 2837 72bd 54a6 fabd
00000210: 49c4 1abc fb2d 4e3d bd35 fe3d 19a4 5bbd
00000220: 4363 dbbb 938e 40be 6085 d5bc b6af 8dbd
00000230: 8e09 a5bd 7b1d 4ebd 0931 153d db92 6ebd
00000240: c53d 92bd 9e25 36bd 34a8 06bd 4632 1c3d
00000250: ac4d b7bd 824e 6cbd 1157 803e c962 83be
00000260: 8040 923c a7e3 ad3d 1a51 64bd f4e8 92bc
00000270: 2eea 423d 0135 12bd 0edb 363d 8fdd f4bd
00000280: b5bc a3bd 1b6c b13d 3f50 1bbd 5ba3 7cbd
00000290: 23a8 33bd fcd9 02bd c47a cfbd ad7e b6bd
000002a0: c7cd d7bd 9bd6 1cbe 2319 b9bb aae9 1abe
000002b0: f913 1fbd 1e98 82bd 0291 6e3c d60c a83d
000002c0: 87c8 d6bc bac6 743c 0fc6 973d 15fc dfbd
000002d0: 63ec 83bc 5dcc d0bd c898 8e3c 1385 15be
000002e0: d6c1 b63c b3b2 61bb 1f20 cebd fa23 b0bd
000002f0: aff1 e73d 2a15 08bd cdf9 85bd 8d94 c63c
00000300: 6453 353d edf9 1fbc 93ed b33d c0ff 83be
00000310: cc33 32be c182 b3be aa63 a9bc 3aaf 77be
00000320: da1e 8dbd f289 e3bd 9bd2 fd3b 1d60 c73c
00000330: c2ce e0bd 1b5d 9abd b3be 31be c9f2 a9bc
00000340: ee6d 4b3e c231 8ebd 75c0 bd3b a993 0abe
00000350: 2c78 f33d 208f 45bd 25da b2bd eba6 84bc
00000360: 19c8 4bbd 2d8c cabc 781e 313b 195f d33d
00000370: 4b8c 0a3d 065d a0bd 8127 a3bc 32fe 3fbd
00000380: 3adf f0bd d1df 61be 4939 04be 8113 883d
00000390: 8a8d c9b7 fff7 493c 31a1 f6bc 15f4 4ebc
000003a0: a565 91bd c608 273d d1a2 57bd 1b01 c2bc
000003b0: 7f9e f23c 1770 a33b 934a 4fbc 39a7 c7bc
000003c0: 30c8 b8bd 0f33 86bc 46a1 073e 577e 00be
000003d0: 0aa9 98bb c289 723d de61 dfbd 0d7c bcbc
000003e0: 3154 1abd 05de 42bd a353 9d3d 42c6 cabc
000003f0: e757 9c3d 74c3 30bd 5116 c7bb 93bb d6b9
0.06268143 0.050834794 0.032400806 -0.0010230554 -0.17956656 0.089021474 -0.10228011 -0.19011846
0.21027951 -0.12108795 0.054974742 -0.1102162 -0.027281217 -0.09543214 -0.1671966 -0.061266936
-0.25175723 -0.018382374 -0.17182027 -0.1574205 -0.35766158 -0.05651475 0.0037501026 0.020614542
0.012953272 -0.22572282 0.049555305 -0.0025022798 0.0543923 -0.056059793 -0.13369673 -0.03880403
0.081718095 -0.08888132 -0.15886189 -0.058727328 -0.10066592 -0.021716965 0.03268884 0.064778976
0.01978442 0.08529413 -0.17062195 -0.34783193 -0.076832645 -0.09004043 -0.12541333 -0.22324152
0.020951025 -0.26331872 0.0038163294 0.020677187 -0.07186865 0.26658705 -0.059594546 0.04981568
0.08817228 0.04032927 -0.24410202 0.2221505 0.13447933 -0.19375582 -0.02686935 -0.1188111
0.08913269 0.12576269 -0.026490165 0.1623821 0.1613294 0.18704581 -0.18425798 0.00051040686
0.018649166 -0.17258407 0.027124325 -0.10522563 0.0060174684 0.103998415 -0.08735171 -0.06882553
-0.050626952 0.22543065 0.09488333 0.01536986 0.15115817 -0.06837252 0.012899167 -0.011797925
-0.02422179 0.042312007 0.030911196 -0.061149944 0.27137014 -0.048846662 0.2041403 -0.0745248
-0.22395751 0.09179159 0.0671266 -0.041968774 0.009476593 -0.123069584 0.0598378 0.16606659
0.14079538 -0.052690264 0.04148592 0.076751515 0.003879109 -0.039383344 0.085971214 -0.058884226
0.07037251 0.0010236745 -0.044497076 0.029233823 -0.056192998 0.10727721 -0.16123046 -0.24823594
-0.03369499 0.3022574 0.029485805 0.22846758 -0.16342466 0.10134889 -0.04536158 0.015936874
-0.09516709 -0.008017451 -0.059134632 -0.12238756 -0.009446212 0.05033682 0.124125935 -0.053623293
-0.0066951825 -0.18804388 -0.026064575 -0.0691828 -0.08058463 -0.050321084 0.036423717 -0.05824552
-0.07140688 -0.04446947 -0.032875255 0.038133882 -0.089503616 -0.05769206 0.25066426 -0.25661305
0.017853022 0.08490687 -0.055741407 -0.017933346 0.047586612 -0.03569508 0.0446425 -0.119563214
-0.079949774 0.086631976 -0.037918326 -0.061679225 -0.04386152 -0.031946167 -0.101308376 -0.0891088
-0.10537296 -0.1531624 -0.0056487485 -0.15128198 -0.038837407 -0.0637667 0.01456094 0.08205573
-0.026218666 0.014939958 0.074108236 -0.10936753 -0.016103929 -0.10195229 0.017406836 -0.14601545
0.022309225 -0.0034438788 -0.1006472 -0.08600612 0.11325394 -0.03322331 -0.06541786 0.024240756
0.04426898 -0.009764177 0.08785548 -0.2578106 -0.17402571 -0.35060695 -0.020677406 -0.24187937
-0.0689065 -0.11110295 0.0077460534 0.024337823 -0.10976936 -0.0753729 -0.17357902 -0.020745652
0.19866154 -0.06943084 0.005790765 -0.1353289 0.11888155 -0.048232198 -0.08733014 -0.016192874
-0.049751375 -0.024725044 0.0027026217 0.10320873 0.0338252 -0.07830243 -0.019916298 -0.04687328
-0.11761327 -0.22058035 -0.12912478 0.06644345 -2.4026976e-05 0.012327193 -0.030106159 -0.012631436
-0.07099465 0.04077985 -0.05264551 -0.023682168 0.029616592 0.0049877274 -0.012652057 -0.02437173
-0.09022558 -0.016381769 0.13245115 -0.12548195 -0.004658823 0.059213407 -0.109073386 -0.02300837
-0.037677947 -0.047575016 0.07681968 -0.02475274 0.076339535 -0.04315515 -0.0060756584 -0.00040957014

actor.4.bias f4 [64]
00000000: df29 6b3c 7b9a e8bd 22c6 4dbe 9bf7 29be
00000010: 0a37 5cbd 4df3 7f3c f0c5 d2bd c7c5 6abd
00000020: d26a f43c 323d 4bbd f9aa 64be d401 0bbe
00000030: cd7b b5be 4d9f c4bc 0c46 35b9 6a9f 66ba
00000040: effc 84bd 6d9c e2bc b92f de3a 2b39 afbe
00000050: ae70 24be 479a 0d3e 2c4e 96be 666f bfbc
00000060: 5c0a f33d ed5f 29be 345e 55bd 0cbe 55bd
00000070: 4c66 393d 7767 32be 86cf 3f3d 2f6a 6abd
00000080: cb34 6abd 5757 96bd 1a51 51be 2e00 a73d
00000090: 0fc2 2ebe f40f a4bd aab8 1dbd 02ba 4dbd
000000a0: efc3 02be 384f 44bd bc63 a6bd 3526 e2bc
000000b0: 201a 5dbe 756a 09be 1709 a1bd bffe 09be
000000c0: 6b2c b5be 5f5f 03be cf22 93bd 886c 3cbd
000000d0: c2c8 aabd 5077 983d d828 febd 1570 b6bd
000000e0: fc77 bdbd 385a a1be 4390 d7bd ccf2 babd
000000f0: b088 9bbd 295e 3fbe 559d aa3c 0563 01bf
0.014353245 -0.1135759 -0.20095113 -0.1659836 -0.053763427 0.015621972 -0.1029166 -0.05731752
0.029836092 -0.049618907 -0.22330846 -0.13574916 -0.35446015 -0.024001742 -0.000172876 -0.0008797558
-0.06493556 -0.02766248 0.0016951478 -0.34223303 -0.16058609 0.13828383 -0.29356515 -0.023368549
0.1186721 -0.16540499 -0.052091792 -0.052183196 0.045263574 -0.17422281 0.04682877 -0.05723017
-0.057179254 -0.073408775 -0.20441094 0.08154331 -0.17066215 -0.08010855 -0.038506187 -0.05022622
-0.12770055 -0.04792711 -0.081244916 -0.02760611 -0.21591997 -0.13419516 -0.07863062 -0.13476084
-0.3538545 -0.1282935 -0.071843736 -0.04600194 -0.08339073 0.07444632 -0.12410134 -0.08908097
-0.09251401 -0.31514144 -0.105255626 -0.09128341 -0.075944304 -0.18688263 0.020826975 -0.50541717

actor.6.weight f4 [7, 64]
00000000: 7fc0 93bd 524e 94bc 4090 223e 64a3 edbc
00000010: 14a6 2ebd 7737 14bd 8ea5 16bd d7f3 223d
00000020: a2bb e63c fb05 823d 5586 a63c 249c 0a3b
00000030: f4be fc3d cf7d 96bd 231e 773c 9325 8c3c
00000040: d5af e93c d394 0c3d 4d45 a63c 3ef9 7e3b
00000050: 18a9 0d3d 175f d43c c819 053d be28 52bc
00000060: 5813 0fbd a2ca cfb9 a483 0dbd 4238 3abd
00000070: 237c a63d ab04 193b b9fe b6bc 461c 983c
00000080: 2ae5 47bd edd0 82bd d10d c13c c929 07be
00000090: 0650 e5bc da6a 9bbd 22e3 90bd 8f90 893d
000000a0: f24d a1bc 4346 88bd b105 ccbd a014 313d
000000b0: 0d90 f33b dcc0 313b 0d4c 213d 9110 003d
000000c0: 053f a53d d96c 6b3d 28e0 ffbc e326 993d
000000d0: 9069 ecbd b260 4a3b 38e2 023e 38ce 8fbd
000000e0: 6280 76bd 48fe bf3d 5266 833d 926c fbbc
000000f0: 71ce f9bc f290 9a3d 4b15 ff3a 43dc 9f3d
00000100: 0dfe 173e 7ef5 81bd 8d54 cc3c 4e73 df3d
00000110: 0ad6 073d 2f24 523d 71f7 0b3e c8de d13d
00000120: b969 2dbd 73d6 0c3b 163d 793d 3bad 66bd
00000130: a691 b4bc 6a5c a1bd 2e8d 2d3d 4e76 873d
00000140: d91f b83c 6abb 5fbd cb6f 333d 3416 4a3d
00000150: d483 39bc e1bf 863c 7a13 a83d 8b12 8e3d
00000160: 8a90 5a3d 4c62 d83d 1387 4dbd 759c 853d
00000170: c829 25bd 7d8b 8d3d b179 103d 573c 73bb
00000180: 74c6 10bc 3380 083d 9bd2 093b c2ac 8ebc
00000190: 3412 8fbd 7abd 943d 1e73 c5bd 9357 683c
000001a0: 48e8 cdbb 2ed6 00be 2836 ab3c 19b9 bb3c
000001b0: ffdb 3a3c 3aec 1e3d 3c17 0e3d ffe1 8cbc
000001c0: 6baa bebc bed8 01b9 9164 b3bd 41f4 d9bc
000001d0: c681 fbbd 7d37 2ebd 7317 e23c 9969 e23c
000001e0: 0c9c e6bc 69fd 3a3c 0809 643d a3e8 d03a
000001f0: 8283 10be a442 b5bd 98e1 f33c 16a3 b0bc
00000200: 49a2 3dbc b657 5d3c f550 5f3d 422f 613c
00000210: 7e74 51bd 1ff8 c0bd 5767 c1bb 8d31 adbb
00000220: f0aa 47b9 ede4 4fbd 5330 183d 4bdd 86bd
00000230: 5158 f23d 7cd6 523d 8820 a6bb de45 47bc
00000240: 8c62 ee3c 3660 cc3c d308 5cbd 7c39 7d3e
00000250: dac1 0f3e 616f 1d3d 912d 043d 9b06 153d
00000260: 4eac 57bd a89d 833c 0f21 013d af00 4cbd
00000270: 88d4 1fbe eae5 a73c c420 15be bca7 a0bc
00000280: 1bb0 59bd 0bfd e3bd fec9 203d 5b19 e53b
00000290: d617 b4bb af18 773d 8f81 5a3d c915 2e3b
000002a0: 598d f63c 66f8 023c a53a f5ba 2b10 44bb
000002b0: 2836 b93c 58e7 d83c 7e72 e4bb 36a7 6fbc
000002c0: f501 1f3c 4c7c f4b8 041d 593d f2b5 20bd
000002d0: 660b 323e d1c0 3dbd afe1 4dbd 8232 d93d
000002e0: b942 97bc 96b2 2fbb baad 05ba fd5b 6abc
000002f0: 12f3 f1bc b4a9 9b3d cb62 1d3d 89e0 2a3e
00000300: e7af bc3d 32be 2c3e 3f57 853d efca 6b3e
00000310: 00d9 4ebe cd65 6abc f18b 8d3d 722a 6b3d
00000320: b50e 643c 055a 053e 094a 7b3c d5d4 8abd
00000330: 261a 20bd 3cc7 45bd 1842 81bb 47d4 123d
00000340: e410 b1bd 656b ecbd 80da d0bd d160 adbd
00000350: 2d95 ce3d 7ff6 c73d 9bc3 f83d 6fa2 62be
00000360: f9c7 803e b963 75bd 3959 223e 5d32 b8bd
00000370: 7634 79bd 9ea9 0dbe c70f 763b 348c 5abd
00000380: d25c 09be ac8d 99bd f0d9 5fbd dd38 37bc
00000390: f53a fb3d fc79 5c3e 88e1 afbc de23 1bbe
000003a0: 16de db3d db31 72bd c9fa b43d 07e7 1cbd
000003b0: 2dc8 22be cbca dabd f7be 273d 1496 2ebd
000003c0: c5c0 b9bd 802f 863d 1419 0d3e a438 a63d
000003d0: f93a 383d 8a9a a83d 0ca2 863d ff06 e13c
000003e0: aed5 e73c a11f d7bd e7db 6d3d a6d7 d23d
000003f0: 6a3d 91bc c105 1f3d d0b7 143e 6fc0 90bd
-0.0721445 -0.018103752 0.1587534 -0.029008575 -0.042638853 -0.036185708 -0.03677898 0.039783325
0.028165642 0.06348797 0.020327726 0.0021150196 0.12341109 -0.07348215 0.015082869 0.01710776
0.028526226 0.034321617 0.020296717 0.0038905884 0.03458509 0.025924249 0.03249529 -0.0128270965
-0.034930557 -0.0003963309 -0.03454937 -0.045463808 0.08129146 0.002334873 -0.022338258 0.01856817
-0.048802532 -0.06387506 0.023566158 -0.13199534 -0.02799226 -0.0758874 -0.07074572 0.067170255
-0.019690488 -0.06654026 -0.09962023 0.04323256 0.0074329437 0.002712301 0.03937917 0.0312658
0.08068661 0.057476852 -0.031234816 0.0747812 -0.11543572 0.0030880389 0.12781608 -0.07021755
-0.06018103 0.09374672 0.064160004 -0.030691419 -0.030493947 0.075471774 0.0019461302 0.078056835
0.14843006 -0.06345652 0.02494266 0.109106645 0.033163108 0.05130404 0.1366861 0.1024757
-0.042337153 0.0021490126 0.06084927 -0.05631755 -0.022042107 -0.07878955 0.042370968 0.06614362
0.022476124 -0.05462209 0.043807786 0.04933758 -0.011322934 0.016448917 0.0820684 0.069371305
0.0533605 0.10565624 -0.050177645 0.065239824 -0.04032305 0.06911371 0.035272304 -0.0037114823
-0.008836377 0.033325385 0.0021030072 -0.017416362 -0.06985894 0.07262702 -0.096410975 0.014181036
-0.0062837936 -0.12581703 0.020899847 0.02291541 0.01140499 0.038799502 0.034690127 -0.017197607
-0.023274621 -0.00012383141 -0.08759416 -0.026605727 -0.12280612 -0.042533386 0.027599072 0.027638244
-0.02815058 0.011412957 0.055672675 0.0015938472 -0.14112666 -0.08850601 0.029770657 -0.02156214
-0.011574336 0.013509681 0.054520566 0.013744177 -0.051136486 -0.09422325 -0.0059022116 -0.005285448
-0.00019041798 -0.05075543 0.03715546 -0.06585177 0.11833251 0.05147408 -0.005069796 -0.012162654
0.029099725 0.02494822 -0.053719353 0.2472896 0.14038792 0.038436297 0.032270018 0.036383253
-0.052654557 0.016066387 0.031525668 -0.04980534 -0.15608418 0.020495374 -0.1456328 -0.019611232
-0.053146463 -0.111322485 0.039255135 0.006991548 -0.0054960055 0.060326274 0.053346213 0.0026563278
0.030096697 0.007993793 -0.0018709494 -0.0029916863 0.022608832 0.0264775 -0.0069716563 -0.014627269
0.009705056 -0.00011657979 0.053006187 -0.039236017 0.1738716 -0.046326462 -0.050264057 0.10605337
-0.018464433 -0.0026809326 -0.00050994346 -0.014304158 -0.02953485 0.07600728 0.038424294 0.16687216
0.09213238 0.16869429 0.065107815 0.23026632 -0.20199966 -0.014306498 0.06911457 0.057413526
0.013919522 0.13022621 0.015337476 -0.06778876 -0.039087437 -0.048285708 -0.0039446466 0.035846975
-0.086458 -0.115439214 -0.101979256 -0.08465732 0.10087047 0.09763812 0.12146684 -0.22132276
0.25152567 -0.059909556 0.15854348 -0.08993981 -0.060841046 -0.13834235 0.0037546025 -0.053356364
-0.13414314 -0.07497725 -0.0546512 -0.011182991 0.122671045 0.21530908 -0.021469846 -0.15150401
0.10735719 -0.059129577 0.08836896 -0.038306262 -0.15896674 -0.10683211 0.040953603 -0.042623594
-0.09069971 0.06552029 0.13779098 0.08116272 0.044978116 0.08232601 0.06573877 0.027469156
0.028300133 -0.105040796 0.058071043 0.10295038 -0.01772948 0.038823847 0.14523244 -0.07067954

actor.6.bias f4 [7]
00000000: 407e 95bd 8bb8 43bd fea9 b7be 0084 0a3e
00000010: 90d6 3ebe 5227 4b3c 40df 293e
-0.07299471 -0.047783416 -0.3587188 0.13526917 -0.18636537 0.012399511 0.1658907
